TrainingData.pth (torch, 10967 bytes, 6 tensors)

layerOne.weight f4 [8, 140]
000000 40 18 43 3f c7 58 24 3f 5e ff 23 3f 27 bc a7 3e
       0.7620888 0.64197963 0.64061534 0.32760736
000010 1d d3 9a 3f 22 41 3b c0 bd 76 0a bf 4d 3e 7a bf
       1.2095677 -2.9258504 -0.5408743 -0.97751313
000020 9f fa c4 be 52 f9 69 3f 7c 11 50 40 15 63 23 40
       -0.3847246 0.9139606 3.2510672 2.5529225
000030 7c c1 23 3f a2 5c 3a bf 85 9a 8b be 20 5e 8e 3f
       0.6396711 -0.72797596 -0.27266327 1.1122475
000040 0d 04 4a 3e 10 e3 10 40 3a 59 ff 3f 41 3f cd 3f
       0.19728108 2.2638588 1.9949105 1.6034929
000050 5b 11 f8 3d 04 4c 94 3f f6 7a 02 40 bb 31 ff 3f
       0.12112685 1.1585698 2.038755 1.9937052
000060 27 b1 ff 3f 28 b8 18 40 c4 3a 83 3f fa 33 b0 3e
       1.9975938 2.38624 1.0252309 0.34414655
000070 cc 73 35 3f d9 d7 cf 3f 33 63 f2 be 75 49 0c bf
       0.70879817 1.6237746 -0.47341308 -0.54799587
000080 3e a5 82 be 20 61 d2 be 56 01 72 bf 5b 71 1e 40
       -0.25516695 -0.41089725 -0.9453329 2.4756687
000090 12 da e6 be 62 9e 46 3f a5 5a b8 3e fb 40 b4 3e
       -0.4508825 0.77585423 0.36006656 0.35205826
0000a0 02 47 0b 3f 83 ec eb be 60 60 ae 3e 0c 78 1e 40
       0.54405224 -0.46078882 0.34057903 2.476077
0000b0 27 21 af be af b2 af 3f 47 9d 52 be 11 25 b3 3f
       -0.3420498 1.3726405 -0.20567809 1.3995687
0000c0 39 77 b0 3f 18 e2 c1 bf ed f8 b3 be a3 5e 00 3f
       1.3786384 -1.5147123 -0.35150853 0.50144404
0000d0 b9 d3 14 bf 6a 4e 33 3f e9 a7 1b bf ae 60 12 be
       -0.58135563 0.70041525 -0.60803086 -0.14294693
0000e0 7d 6d 2e bf 5e 15 96 3f 15 6c 64 3f 53 83 3d be
       -0.68135816 1.1725271 0.8922742 -0.18507127
0000f0 25 48 ab 3c db 0c 5f bf 13 49 c8 3f b1 51 4e 3f
       0.020908425 -0.8712899 1.56473 0.805934
000100 77 64 1c 3f ac 32 1c 3f 28 76 fa bf 11 1d f5 3e
       0.610908 0.6101482 -1.9567308 0.47873738
000110 dc b2 80 bf 3e 6f fd 3f 68 a6 51 3f 27 da 8d 3f
       -1.0054584 1.9799573 0.8189454 1.10822
000120 43 cc 10 40 9a ff 2c 3f c1 6b 48 be f8 a2 3c 3f
       2.2624671 0.6757752 -0.19572355 0.7368617
000130 16 af e0 3e 95 3f 5e bf 04 c7 fe be a3 99 d0 be
       0.4388358 -0.8681577 -0.49761212 -0.40742216
000140 f2 b7 08 3f 8b e3 92 bf f4 06 1a 3f 91 77 30 3f
       0.5340568 -1.1475691 0.6016686 0.68932444
000150 5f 6e 1a 40 08 53 18 40 c2 27 0e 40 e3 3a 8f bf
       2.4129865 2.3800678 2.2211766 -1.1189846
000160 c9 55 19 3f 5b 3f b2 3f a2 38 f2 3d 19 01 bd be
       0.5989652 1.3925585 0.11827208 -0.369149
000170 99 25 57 3f 8f 01 b6 bd 2a bf 46 be 21 6f a6 3f
       0.84041744 -0.08887016 -0.19408861 1.3002664
000180 34 b9 e0 3f 7f b8 d8 bd c5 11 bd 3e 08 1b 03 3f
       1.755652 -0.10582065 0.3692762 0.5121312
000190 b0 f2 d7 3f 3e b8 fc 3f 99 d6 e0 be 2e 2f 0a 3f
       1.6870937 1.9743726 -0.43913725 0.5397824
0001a0 23 85 c7 3f 62 87 13 bf 96 89 83 bd ff 02 88 3f
       1.5587505 -0.5762845 -0.06422727 1.0625914
0001b0 7e ec 96 3f 07 d5 91 bf ef ba 5a 3f 30 55 f6 bf
       1.1790922 -1.1393136 0.8544149 -1.9244747
0001c0 20 a1 0d 3f cc a3 c6 bd 47 34 07 40 ca 5f 33 3f
       0.5532398 -0.096992105 2.1125658 0.7006804
0001d0 49 31 a8 3f 1d bc 7f 3f 72 f0 c1 bf a4 25 00 40
       1.3140041 0.99896413 -1.5151503 2.0022974
0001e0 d4 f1 37 ba 43 a2 94 be dc 39 2f 3f a6 b6 fe 3f
       -0.0007016931 -0.29030046 0.6844766 1.989949
0001f0 cc ec 2b bf 4e 75 b2 3f f7 81 bf be 7a 72 9d 3f
       -0.671582 1.3942049 -0.37403843 1.230056
000200 8b e0 81 3d c0 58 77 be 4c 67 67 3f 20 32 9d 3f
       0.06341656 -0.24154949 0.90391994 1.2280922
000210 48 c5 1c 3f c2 24 5e 3f 79 45 2f 3f a3 f2 91 3e
       0.6123853 0.8677484 0.6846538 0.2850543
000220 35 8b 88 bf ce 94 0c bf 5d 7f dc 3f 13 04 34 bf
       -1.0667483 -0.5491456 1.7226368 -0.70318717
000230 e1 00 eb be be 34 57 3f 36 c8 55 3f f2 c2 25 3e
       -0.45899108 0.84064853 0.8350862 0.16187647
000240 ce 98 0f 3e 4d 74 90 3f 1b c9 3f bf 46 9a 5d 40
       0.14023134 1.1285492 -0.7491624 3.462541
000250 ea 96 70 3f a4 fc b4 3f 1e 92 13 40 52 52 08 40
       0.93980277 1.41396 2.3057933 2.1300244
000260 1f 9a 42 3f 93 0b b1 be c2 af 46 be 1b ec 92 bf
       0.7601642 -0.34579143 -0.19402984 -1.1478304
000270 df 91 13 bf 74 2e 97 bf af e7 31 40 73 74 2e 40
       -0.57644457 -1.1811051 2.7797658 2.7258575
000280 a9 bf 06 40 c3 3c 0d 40 74 a6 8b bf ee 64 8b bf
       2.105448 2.2068336 -1.0910172 -1.0890176
000290 f1 8a 8b bf 4c 5a 40 3e 62 e5 99 bf 21 b5 19 3f
       -1.0901777 0.18784446 -1.2023127 0.60042006
0002a0 8b ee 3b 3f ce c5 07 40 17 6d 0f be bf ea 06 be
       0.7341086 2.121448 -0.14006458 -0.13175486
0002b0 99 3a b2 bd 6b 44 1f be 20 72 0a 40 fa d7 0c 40
       -0.08702583 -0.15553443 2.1632156 2.2006822
0002c0 ec 66 54 bf 2b c4 c3 3f 32 58 97 3f 82 b4 1d bf
       -0.82969546 1.5294241 1.182379 -0.6160356
0002d0 b1 4c c1 3e d0 fc 15 be 2c 7a 98 3f a9 4b 0b 40
       0.37753823 -0.14647222 1.1912284 2.176493
0002e0 d4 58 a2 bd 42 b4 81 bf 65 a3 28 bf 78 0b 7a bf
       -0.07927099 -1.0133135 -0.6587432 -0.9767375
0002f0 0b 56 7c bf cd 40 14 40 dd c3 d3 bd 85 f7 5b 3d
       -0.9856879 2.3164551 -0.10340092 0.05370285
000300 0a 6f a9 3f 8f 3b 3c 3f dd 02 18 bf 67 81 a3 be
       1.3237011 0.7352838 -0.5937937 -0.31934664
000310 6f 68 5f bf de f7 a1 3f 2e 0c 9c 3f 4e 53 73 3c
       -0.8726873 1.2653768 1.2191217 0.014851404
000320 ef ab 8e bd 4d 00 7a 3f 71 52 fd bd 5a 8a c8 3f
       -0.069663875 0.9765671 -0.1236924 1.5667222
000330 74 ce 59 3f 59 71 51 3f 26 e5 6a bf 5f 62 97 3f
       0.8508065 0.8181358 -0.917559 1.1826895
000340 0a b5 e1 3f 69 db 7e 3e b4 7d c3 3d bf a8 6e 3f
       1.7633374 0.24888386 0.0954546 0.93226236
000350 11 cf 1f bf 27 78 58 3e 88 d0 1b 3e 7e ab 83 3d
       -0.62425333 0.21139584 0.15216267 0.06429194
000360 40 b8 14 3f 5f 13 d1 be ba 06 15 be be 40 f1 be
       0.58093643 -0.4083509 -0.14553347 -0.47119707
000370 09 02 a5 be 14 22 40 bf cb cc 44 3f bc 0b 40 3f
       -0.32228115 -0.75052 0.7687499 0.75017905
000380 18 5f 8c 3f 9b 15 8b 3f 54 0e 8d 3f b1 fb 38 bf
       1.096652 1.0865968 1.1019998 -0.7225905
000390 23 d9 9b 3f 1a 2e 7e bf 38 7c 12 c0 88 a9 c8 bf
       1.217564 -0.99289095 -2.2888317 -1.5676737
0003a0 6b 6a ef 3f 1f cd 5d 3f 60 b7 c8 3e 4d 20 98 3f
       1.8704351 0.86641115 0.39202404 1.1884857
0003b0 97 9e ce be 7a 0a 1b bf 9d 09 0a 3f fe ed 93 be
       -0.4035537 -0.6056286 0.5392092 -0.2889251
0003c0 53 64 0d 40 51 ad 14 40 47 eb 0d 3f c0 8e 33 3f
       2.2092483 2.3230784 0.5543713 0.70139694
0003d0 fb aa 96 bd b7 a1 a8 3f 69 3d 54 3f b1 69 57 bf
       -0.07356831 1.3174351 0.82906204 -0.8414565
0003e0 22 54 68 3f 84 f4 de be b6 07 b9 3d 60 e1 8a 3f
       0.90753376 -0.43545926 0.09034674 1.0850029
0003f0 9b 6f d1 bd 4b e7 fe 3d 0c 98 53 bf 33 bb f3 3d
       -0.10226365 0.124464594 -0.8265388 0.1190094

layerOne.bias f4 [8]
000000 a0 30 8c 3f ea 51 86 3f 74 ff 6b 3f 36 5b 6a 3f
       1.0952339 1.0493748 0.92186666 0.91545427
000010 58 4d ae 3f ad fc b0 3f 95 4e d2 3e e7 ae 7f 3f
       1.3617353 1.382711 0.41075578 0.99876255

layerTwo.weight f4 [8, 8]
000000 32 cd fa 3e 78 19 a9 bf 8c e3 0c 3f cd 3a 22 3f
       0.48984677 -1.3210897 0.5503471 0.6337097
000010 b1 57 97 3f 09 e6 1a 40 07 72 17 c0 72 c5 30 40
       1.1823636 2.4202902 -2.3663347 2.762051
000020 05 09 37 3f 8d 3f 39 40 d6 de 58 40 92 a6 9a bf
       0.7149814 2.8945038 3.3886008 -1.2082083
000030 c7 dc c7 3d 7b 55 cd be ec 15 14 bf ae f7 b2 be
       0.09758907 -0.4010428 -0.5784595 -0.3495459
000040 36 56 3c be c4 46 07 be cc e0 98 bc da 94 0e be
       -0.18392262 -0.13210589 -0.018661879 -0.1392397
000050 1a 28 6b be 65 0e b3 be c4 a0 b8 3d 20 d3 57 be
       -0.22964516 -0.3497192 0.090150386 -0.21076632
000060 29 18 06 c0 e7 31 b1 3f 87 55 85 3f 8d 1c 59 bf
       -2.0952246 1.3843354 1.0416726 -0.8480919
000070 20 5d 16 40 6d a7 bb 3f 44 72 ef bd 49 6e 5e 40
       2.349434 1.4660469 -0.11691716 3.4754813
000080 7c 2f c6 3e 1e 85 f8 3d a9 7b da be ae 9f 47 3d
       0.38708103 0.12134765 -0.4267247 0.048736267
000090 54 de 63 bd f2 a0 a5 3d 30 e4 6b be ee 39 f9 3d
       -0.05563195 0.080873385 -0.23036265 0.12169252
0000a0 ea 4b 0d 40 2f ec 22 40 0f 4e fb bf 0b d9 3a 40
       2.2077584 2.5456655 -1.9633197 2.9194973
0000b0 88 49 ef bf 30 39 16 40 0b 98 aa 3f f1 5d ff be
       -1.8694315 2.3472404 1.332765 -0.4987636
0000c0 94 89 95 3f 33 07 e1 3e 35 bc 11 3e e1 07 cf bf
       1.168261 0.43950805 0.14231952 -1.617428
0000d0 cd 5e fc 3f 60 86 df 3f 16 e6 be 3f 28 f4 13 c0
       1.9716431 1.7462883 1.4913967 -2.311777
0000e0 e0 10 0a 40 ca b1 0d 3e c0 35 51 3f ba b2 f4 3f
       2.15728 0.13837352 0.8172264 1.9117043
0000f0 40 19 0d 40 ed 85 b0 bf d9 e7 fe bf 38 9f 93 be
       2.2046661 -1.3790871 -1.9914504 -0.28832412

layerTwo.bias f4 [8]
000000 30 f7 96 3f 3b f2 1e 3f cb f4 8d bb a8 55 33 3e
       1.1794186 0.62088364 -0.00433216 0.17513144
000010 98 ab 94 be f1 e0 66 3f 1c ea 07 3e 03 ed ee 3e
       -0.29037166 0.90186983 0.132729 0.466652

layerThree.weight f4 [47, 8]
000000 c3 95 5d 3e 29 d6 b2 3e 11 3a 2e 3e b3 21 a9 be
       0.21639161 0.34929016 0.17014338 -0.33033523
000010 f3 ae 33 be 67 38 0b c0 58 af 20 3f 52 23 0f 3e
       -0.17547207 -2.1753175 0.62767553 0.13978317
000020 87 6d 92 be dc 11 f3 3e ca 24 4b 3e 92 64 3b bf
       -0.28599188 0.47474563 0.19838253 -0.73200333
000030 2b 1f e9 be 77 05 8a be cb 9e 54 bf 10 ca 4c 3e
       -0.45531592 -0.26957294 -0.830548 0.19998956
000040 1f 83 d9 be 82 a2 31 3e 07 7c 98 be 13 16 f8 be
       -0.4248285 0.17347148 -0.29782125 -0.4845434
000050 3b 8b 3f bf 0c dc b3 bc 7c 92 49 3e e7 76 18 bf
       -0.74821824 -0.021955512 0.19684786 -0.5955643
000060 50 f7 03 3f 71 f2 8e be 56 6e 66 3d d7 31 ec 3e
       0.51549244 -0.27919343 0.05625757 0.46131775
000070 1a 6b 5e c0 7d 4c 7f bf b3 d7 a1 bf a4 b7 7c 3f
       -3.475287 -0.99726087 -1.2643951 0.98717713
000080 45 e4 59 c0 b9 81 b9 3f 8a 89 f8 3b 4c cb 96 be
       -3.4045575 1.4492713 0.0075847553 -0.29451978
000090 37 36 99 bd 6e 3a 07 bf a1 fc a4 bd 35 ba 82 c0
       -0.07481044 -0.5282353 -0.08055998 -4.0852304
0000a0 8e 14 c9 bd 25 3c 83 3e e0 01 9c be 0e c7 91 c0
       -0.098183736 0.25631824 -0.3047018 -4.5555487
0000b0 a2 90 23 3f 39 e6 1e 3e 28 fe 90 c0 33 26 36 3f
       0.6389257 0.1551751 -4.531025 0.7115204
0000c0 87 00 85 c0 89 ae 85 3f 04 78 54 3d 10 cd ef bf
       -4.1563144 1.0443889 0.05187227 -1.8734455
0000d0 f1 24 3a bd b6 19 f2 3d ea 11 09 c0 b3 01 ae 3d
       -0.045445386 0.1182131 -2.1417184 0.08496418
0000e0 62 e2 c6 bf 74 04 ae 3f 23 61 9c 3e e4 42 15 3f
       -1.5537837 1.3595109 0.3054286 0.5830519
0000f0 c0 fc dd be c0 33 0d bf 9f 8c 7e c0 5a 61 df bf
       -0.43356895 -0.5515709 -3.9773328 -1.7451584
000100 47 61 b2 bf 2e bc 33 3f 21 76 7f 3e 21 66 5b bf
       -1.3935937 0.70209014 0.24947406 -0.8570271
000110 39 a5 02 be 4d 52 20 c0 c5 06 18 3f 14 99 67 3f
       -0.1275834 -2.5050232 0.5938533 0.90467954
000120 ab d4 15 c0 60 5b 63 be 22 2f 4e be 47 f9 28 c0
       -2.3411052 -0.22202826 -0.20135167 -2.6402147
000130 0f 53 2e 40 3f f1 3d be d4 6e 1c 3f c9 bd 62 3f
       2.7238195 -0.1854906 0.6110661 0.8857084
000140 cb 54 91 c0 30 c1 8e 3f 9a 31 fb bc 19 30 26 bf
       -4.5416007 1.1152706 -0.0306633 -0.6491714
000150 aa e4 d5 bf fa 6f ab bf 39 7e 5e 3e 15 98 0b 3f
       -1.6710408 -1.3393548 0.21727838 0.54528934
000160 70 c5 89 c0 39 15 2d 3d 06 89 09 3e b1 95 08 c0
       -4.3053513 0.042256568 0.13431177 -2.1341364
000170 1d 6d 64 c0 2b 58 1a 3f b9 de c3 3d 24 41 ea bf
       -3.5691597 0.60290784 0.09563965 -1.8301129
000180 98 69 a1 bf 26 b5 a7 3f 47 5e 30 bd 78 80 b5 3d
       -1.261035 1.3102157 -0.04305866 0.08862394
000190 8a 92 e8 be 3e fb 18 c0 99 55 89 bf 66 d9 29 3e
       -0.454243 -2.3903346 -1.0729247 0.16586837
0001a0 21 70 0b 3f 4d 15 f9 be b7 8d 96 be 6f 70 0e c0
       0.5446797 -0.48649064 -0.29404995 -2.2256124
0001b0 93 90 66 c0 2e 14 9e bf 94 5f ed 3d bc 1c b4 3f
       -3.602574 -1.2349908 0.11590496 1.4071269
0001c0 c1 7d 91 3d 1b 84 46 c0 1f 75 48 be 26 0f b4 be
       0.07104064 -3.101813 -0.19575928 -0.35167807
0001d0 7e 3e 0b 3f 9c b8 9b be 4c 00 12 c0 1c 76 e0 3f
       0.5439223 -0.30414283 -2.2812681 1.7536044
0001e0 83 ff 7d 3f 34 70 96 c0 8b 4c 8c be 4e e8 b2 3e
       0.99218005 -4.7011967 -0.27402148 0.3494286
0001f0 86 28 c5 bf b1 c9 df bf 69 54 77 bf 33 00 bd 3f
       -1.5402992 -1.7483426 -0.96613175 1.4765686
000200 75 ec 2c 3f 14 8c ac c0 3d 0f b9 be 65 a6 3d 3f
       0.67548305 -5.3920994 -0.36144438 0.7408202
000210 59 ae 90 bf d9 ec 24 3f 2d 40 54 c0 20 2f 74 c0
       -1.1303207 0.644239 -3.316417 -3.8153763
000220 5d 38 7e 3e 5e 4b c4 be 7c 10 7f 3e 6f 94 a7 3d
       0.24826188 -0.3833875 0.24908632 0.08182608
000230 e0 88 d8 bf 04 22 fc be ff 44 02 3f c7 85 c9 bf
       -1.6916771 -0.49244702 0.5088653 -1.5743951
000240 36 ec aa 3f 53 00 74 c0 b7 25 dd bd 54 58 90 c0
       1.3353336 -3.8125198 -0.10798209 -4.5107822
000250 c1 e7 3d be 66 f5 54 be 10 15 10 bf 3e 35 4e 3f
       -0.18545438 -0.20796737 -0.5628214 0.8054999
000260 86 ca a6 be 90 07 68 3f c9 02 61 be 8b 1a 23 3f
       -0.32576388 0.9063654 -0.21973719 0.63712376
000270 3f 3d 30 bf e0 60 d8 bf 10 b5 23 bf f5 5f a8 bf
       -0.68843454 -1.6904564 -0.63948154 -1.3154284
000280 c7 85 f9 be a2 cf e8 3e 57 a0 5c 3e e6 6e 0a 3f
       -0.48734877 0.4547091 0.2154554 0.5407547
000290 fe d4 48 be a6 b9 98 c0 70 52 91 3e 7c 0b 92 3d
       -0.196125 -4.772662 0.28383207 0.07131097
0002a0 99 25 f2 be 3a 5a 2f 3f dd 80 96 3e a0 32 8f 3f
       -0.4729431 0.6849705 0.2939519 1.1187325
0002b0 f8 83 45 3f 17 83 81 bf 6c b4 ae bf 45 a7 96 c0
       0.77154493 -1.011813 -1.364881 -4.7079186
0002c0 4b ac 4e c0 ec 77 93 be ef 7b 17 3e e5 11 94 3f
       -3.229266 -0.2880243 0.1479337 1.1567961
0002d0 14 6b b7 bf 89 79 1f 3f aa c7 8d c0 7d 14 6b bf
       -1.4329553 0.6229482 -4.430623 -0.9182814
0002e0 4a de c5 3e 26 11 c2 be a0 23 2b 3e cd a6 bc 3e
       0.38646156 -0.37903708 0.16712809 0.3684601
0002f0 9a 99 69 3d 4d f8 8b c0 4e 93 a7 3f 49 ec f5 bf
       0.05703125 -4.37406 1.3091829 -1.9212734
000300 aa c1 fe be cd 6d 2f c0 34 67 86 be f0 46 e6 bf
       -0.4975713 -2.7410767 -0.26250613 -1.7990398
000310 12 6c 19 3f 0a 42 82 3f da 1e b6 c0 72 1d 32 3f
       0.5993053 1.0176404 -5.691266 0.6957618
000320 55 b1 7b bf 57 79 01 bf 83 b9 38 3d 97 e1 95 3e
       -0.9831746 -0.50575775 0.045098793 0.29273674
000330 20 aa 24 3d 6f c6 e6 3e b0 07 6f be 02 7f ba c0
       0.040201306 0.45073268 -0.23342776 -5.828004
000340 4d 6f bc 3f 73 f4 ca c0 93 a6 f8 3d ca 37 95 bf
       1.4721466 -6.34234 0.121411465 -1.165765
000350 02 3a 2d 3f f6 20 10 3f 16 d1 6b c0 45 b5 2a be
       0.6766664 0.56300294 -3.6846366 -0.16670711
000360 4b 90 04 bf ee 75 fb be fd 44 84 3e 01 46 81 bf
       -0.51782674 -0.4911341 0.25833884 -1.0099488
000370 36 28 c4 3f b1 a1 48 3f cc 16 3d c0 49 17 21 be
       1.5324771 0.7837172 -2.9545164 -0.15731539
000380 4e 55 e7 3e 9b 4c ac 3e 33 d3 fb bd 91 42 00 3f
       0.4518227 0.33652195 -0.122961424 0.5010157
000390 96 da 9c bf c6 8d 03 3f e6 44 a6 c0 46 aa 69 c0
       -1.2254207 0.51388204 -5.1959105 -3.6510177
0003a0 ad 77 4c 3f 11 61 ef 3d b5 a1 8e bd e5 7e 15 bf
       0.7987011 0.11688436 -0.06964437 -0.5839675
0003b0 ab 41 54 be 80 29 a7 c0 ea 22 8f be 0a e7 a5 3f
       -0.20728175 -5.223816 -0.27956325 1.2961133
0003c0 6d ae ce be 59 de 94 bf 7f 05 82 3e b9 3a 0a bf
       -0.4036745 -1.1630355 0.25394818 -0.53995854
0003d0 8e 09 41 3f 48 48 16 3f 79 12 d9 3d f4 c4 ee bf
       0.75405204 0.5870404 0.105992265 -1.8653855
0003e0 3c 66 fb bf 92 49 87 be 13 2d 8c bd af b5 2c 3f
       -1.9640574 -0.26423317 -0.06844535 0.6746473
0003f0 61 21 59 be 6a c7 a4 bf ae 14 95 3f e2 49 fd bd
       -0.2120414 -1.2873356 1.1646936 -0.12367608

layerThree.bias f4 [47]
000000 f5 a2 68 bf 24 40 da 3e 04 73 fa be 9e 9e 99 3d
       -0.9087365 0.4262706 -0.48915875 0.07500957
000010 55 80 78 be a6 ff 31 be e3 ec 33 bf 55 36 19 3e
       -0.24267705 -0.17382678 -0.70283335 0.14962132
000020 c5 21 01 3e f3 a1 6e bf bc 47 12 bf 70 1f 2c 3f
       0.12610538 -0.93215865 -0.5714071 0.6723547
000030 8a 93 09 be d8 67 d5 bd af a2 b9 3d 3d 98 17 be
       -0.13435188 -0.10420197 0.090642326 -0.14804168
000040 f9 ff 7e 3e 77 18 a3 bd b3 68 99 3e 20 67 96 bf
       0.24902333 -0.07963651 0.29962692 -1.1750221
000050 0a 7f 12 be 88 b8 8f bf af e4 7e 3e 16 ae d9 be
       -0.14306274 -1.122819 0.24891923 -0.4251563
000060 18 60 09 3e c3 bc 78 3b 4c d6 45 3d 39 8c 5a bf
       0.13415563 0.0037954308 0.048300073 -0.8537021
000070 6e f2 a8 be 15 d9 47 3f 9a c1 0e be 50 db b8 bd
       -0.3299746 0.78065616 -0.1394104 -0.090262055
000080 7d b6 20 3e 2c 86 41 3f f7 44 e7 3e f5 c7 c6 3d
       0.15694614 0.75595355 0.45169804 0.097061075
000090 39 13 8d be 9b 17 4b 3f 32 9d c5 be e4 0e 3e 3e
       -0.27553728 0.79332894 -0.38596493 0.18560368
0000a0 7a f2 99 3f b3 63 b9 bf 52 62 b0 be a3 86 19 bd
       1.2027123 -1.4483551 -0.34450012 -0.037481915
0000b0 ff cf 65 3f 2c 6b b7 3e f1 35 86 be
       0.897705 0.35823953 -0.2621303
